saves/mlp_expert2.pth (torch, 4528 bytes, 8 tensors)

model.0.weight f4 [30, 4]
00000000: eaf3 073e 43bf a0bd 44a8 57bd 02b0 703b
00000010: f865 d13d 013c acbd 9002 97bd c104 90bc
00000020: 9616 6bbc 10f8 c93c c326 023e ea4a e3bc
00000030: 0bd9 ccbd 7f6d c43d c9bd 473d acac 5b3c
00000040: 7bb4 34bd ff1e df3c c9e2 053e b93b 36bd
00000050: b342 8c3d e522 01be e4a7 94bd 8622 1cbc
00000060: cdd8 68bd 11bd 993c 7136 033e 8d48 16bd
00000070: 2f0c 733d ed6b ebbd aa6c 51bd 25e1 05bc
00000080: 1c05 d13d 4c4b a8bd 0d42 82bd 8192 a33a
00000090: 2096 2cbb 0b4c e43c a576 f93d eee4 84bd
000000a0: 5bce 7ebd 932a 983c 6605 e23d 52a6 f03b
000000b0: 7b39 9fbd 4e14 6a3c 207c fd3d 2d59 d7bc
000000c0: 9181 01be bd0f 043e 8368 76bc 402b 843d
000000d0: bcc0 c33d b89c bfbd 6904 9dbd 73e1 acbc
000000e0: 819b 4cbd 1f3f fdbb 7e6e fb3d de2d f8bb
000000f0: 6cd4 ea3d 29d6 c3bd 311d 90bd 7e9c 01bc
00000100: 4cdc 96bb 3a3e 9e3b 06a1 363e 7033 eebd
00000110: eb15 f1bd 1b2b e53d 4cd6 17bc d5f6 503d
00000120: 5e5a 9c3d 7d67 d9bd 93cd 72bd 8079 9abc
00000130: 3ed1 e63d 9e9d e2bd b713 82bd c08c 38bb
00000140: c641 c43d e6f5 a9bd 70a0 97bd c3a4 b2ba
00000150: 1aed 04be 6842 013e 793b 8dbc d8c7 c73c
00000160: 3359 6e3d 0733 01be 4f11 91bd 821a fc3b
00000170: 2b4e a63d 9aab dbbd ff8c a7bd 90b7 233b
00000180: 8a5f 61bd 57f9 ca3d f958 d63c b511 68bd
00000190: a63b ca3d b6d7 f9bd edd8 b5bd df75 323c
000001a0: 7e79 f7bd a6bc e13d 3330 89ba 593d 0a3d
000001b0: 5077 4abb 977d b63c 3bb9 063e 0bfc 9fbd
000001c0: dad7 6dbc d005 93bc f8e0 093e e1df 1bbd
000001d0: 0a81 0dbe 39f5 e23d 4a36 0bbc 52f6 733d
0.1327664 -0.0784898 -0.052650705 0.0036726003 0.10224527 -0.08409882 -0.07373536 -0.017580392
-0.014348647 0.024654418 0.12710099 -0.027745683 -0.10002335 0.09591197 0.048764978 0.013407867
-0.044117432 0.02723646 0.13074793 -0.04449055 0.06848659 -0.12610967 -0.07258585 -0.009529715
-0.056847382 0.018766912 0.12813736 -0.036690284 0.05933779 -0.114951946 -0.05112902 -0.008171354
0.10206053 -0.08217487 -0.063602544 0.0012479575 -0.0026334599 0.027868291 0.12180833 -0.064889774
-0.062208515 0.018574988 0.11036186 0.0073440457 -0.077746354 0.014287068 0.123771906 -0.02628764
-0.12647082 0.12896629 -0.015039566 0.06453562 0.095582455 -0.093560636 -0.07666857 -0.021103596
-0.049952988 -0.007728472 0.12276934 -0.007573827 0.114662975 -0.09562332 -0.07036818 -0.007910846
-0.004603898 0.0048291953 0.17834863 -0.11630905 -0.11771759 0.11189862 -0.009267401 0.051016647
0.07634424 -0.10615442 -0.059278082 -0.018856764 0.112703785 -0.11065219 -0.063514166 -0.0028160065
0.09582858 -0.082988545 -0.07403648 -0.0013629425 -0.12981072 0.12622988 -0.017240273 0.024387285
0.058190536 -0.12617122 -0.070833795 0.0076935897 0.08120378 -0.1072609 -0.0818119 0.0024981238
-0.055022754 0.09910839 0.026165472 -0.05665751 0.09874658 -0.12199347 -0.08879266 0.0108923605
-0.1208372 0.1102231 -0.0010466635 0.033749912 -0.003089387 0.022276683 0.13156597 -0.07811745
-0.014516795 -0.017947108 0.13464725 -0.038055304 -0.13818756 0.11081929 -0.00849683 0.05956108

model.0.bias f4 [30]
00000000: a2ae 7d36 fc6f db36 47a6 2eb8 1851 70b6
00000010: 7b0b 6fb7 b825 0237 3c0a 9bb6 28f2 1537
00000020: 7df5 0938 1c3a 3ab8 745b b8b7 e1ad 1ab7
00000030: 5418 6bb7 51a3 08b7 748c 1d37 aca4 a1b7
00000040: b259 cfb6 1032 b636 3340 3b37 fa0b c1b6
00000050: b0c8 9335 c024 08b7 6e97 2b37 e7e1 de37
00000060: 40fd 61b4 dca7 aab7 da3c 6d37 3f39 c9b6
00000070: 6c6e 5e37 0abf f7b6
3.7801587e-06 6.5397453e-06 -4.163969e-05 -3.580999e-06 -1.4248183e-05 7.757386e-06 -4.6205514e-06 8.9374735e-06
3.2891974e-05 -4.4399974e-05 -2.1977095e-05 -9.2196e-06 -1.4012756e-05 -8.144257e-06 9.390631e-06 -1.9269377e-05
-6.1795226e-06 5.4298507e-06 1.1161016e-05 -5.7532425e-06 1.1010761e-06 -8.114788e-06 1.0227652e-05 2.6569656e-05
-2.104689e-07 -2.0343745e-05 1.4140469e-05 -5.996931e-06 1.3257941e-05 -7.3834135e-06

model.1.weight f4 [30]
00000000: 3ecb bc3e a979 e23e 28a3 c93e 048b bc3e
00000010: 9237 df3e 6b10 e93e 0cdc d23e 4e58 e13e
00000020: bc41 d23e 25d1 e03e 9f78 b13e 4092 d83e
00000030: 9b7c eb3e b487 e43e f855 e33e 56d6 eb3e
00000040: 7f89 ef3e d6f2 c83e ab7e e03e 8182 f43e
00000050: c243 d83e 254d dc3e 1ffe 043f 4fb7 fb3e
00000060: 534c af3e 8148 f33e 2843 db3e 2ca2 f23e
00000070: c4de e53e dddd e93e
0.3687381 0.44233444 0.3938229 0.3682481 0.43597084 0.45520338 0.41183507 0.44012684
0.41065776 0.43909565 0.3466234 0.4229908 0.45993504 0.44634783 0.44401526 0.46061963
0.4678459 0.3924777 0.4384664 0.47755817 0.42239195 0.43027607 0.5195026 0.4916329
0.34237918 0.47516254 0.42824674 0.47389352 0.4489652 0.4567708

model.1.bias f4 [30]
00000000: ebe6 debb edaf 1b3d 4901 ad3d 9c44 4b3e
00000010: 889e 023e 37b5 ae3b 272f e43d a8ab 39bc
00000020: f25c 8f3c 2136 9f3d 8f29 203d 5768 ed3d
00000030: eb58 283e faeb db3c c5a4 9b3d 69a6 e83c
00000040: ccf4 203d 6273 063e 536b bd3b 625d 483c
00000050: deeb 2639 a325 183e 3a43 113b fd0e 383d
00000060: ea2d 093e 52e0 803d 1b7b 1d3e 055c 9f3d
00000070: e6e8 623d ba23 2a3e
-0.00680243 0.038009573 0.08447511 0.19850391 0.12755787 0.005331661 0.11141806 -0.01133243
0.017500374 0.07773996 0.039102133 0.11592167 0.1644017 0.02684592 0.07599787 0.028399663
0.039295956 0.13129953 0.0057806163 0.012229295 0.00015918861 0.14858107 0.0022165314 0.04493617
0.13396421 0.06292786 0.15378992 0.07781223 0.05539789 0.16615191

model.1.running_mean f4 [30]
00000000: 1d7d 86bd 1fa9 66bd fe83 9f3c 4b7a 4d3d
00000010: ad6b 063d e4c8 07bd 84e2 233d 92d6 dbbc
00000020: e54b 53bd 416f dd3b b191 3e3d bc1b 5b3d
00000030: a8ba 683d 2229 53bd 5cac 303d a6b1 6cbd
00000040: 2706 3c3c 29bb 563d 16ad 1dbd 423b 5cbd
00000050: 0104 4ebd 81d0 563d d5ec c8bc 3094 27bd
00000060: 9996 4e3c b09d 47bd 8ce3 563d 7d46 023c
00000070: a83d c33c 2a02 823d
-0.06566832 -0.05631363 0.019472118 0.050165456 0.03281753 -0.03315057 0.040010944 -0.026835714
-0.05158605 0.0067576473 0.04652566 0.053493246 0.056818634 -0.0515529 0.043133125 -0.057786606
0.011476076 0.052424584 -0.038495146 -0.05376745 -0.050296787 0.05244494 -0.024526993 -0.040912807
0.0126091475 -0.048734367 0.0524631 0.007951376 0.02383311 0.06348069

model.1.running_var f4 [30]
00000000: b67e 7c3b 282f 3f3c 4c9a 5c3c 9756 1d3c
00000010: 7d81 243c 368a cf3c ffed 133c 4d78 933c
00000020: 1f1d f83b 7d8b 1b3c 547e 3b3c 52fd f03b
00000030: 08ff 743c 9c81 873c 6830 383c d138 443c
00000040: 89be 5c3c 03d3 2c3c 1842 8f3c 0457 493c
00000050: 8282 203c 7fcb 173c b668 b93c 98e3 923c
00000060: b79b eb3b 4590 9c3c aaec 0b3c dd6f 143c
00000070: 4b9c 273c 3574 293c
0.0038527674 0.011668958 0.013464522 0.009603164 0.010040638 0.025334459 0.009028911 0.0180017
0.007571831 0.009493706 0.011443693 0.007354417 0.014953382 0.016541295 0.01124201 0.011976437
0.0134731615 0.010548356 0.01748757 0.012288813 0.0097967405 0.009264826 0.022632938 0.01793079
0.0071901935 0.019111762 0.008540312 0.009059873 0.010230134 0.010342647

model.4.weight f4 [2, 30]
00000000: d78b 7bbe 5e77 9cbe fcdc 913e 78a4 943e
00000010: 20a4 a23e a2e3 a1be 2bca 9a3e 607e 9abe
00000020: 9ca2 8fbe db0c 9f3e 331c 753e 5ccb 9c3e
00000030: 5bb7 ad3e 5656 9cbe 91f3 a43e 2436 a2be
00000040: 2a50 a83e 43b2 943e 8788 99be c3f1 a8be
00000050: 4a74 92be df20 a13e d90f babe 75d6 b1be
00000060: 9968 813e 48b4 aebe 8693 a03e 2bd7 ae3e
00000070: 03e2 a43e 9494 ae3e e362 7c3e 2a6f 9d3e
00000080: 6bd4 91be 89cb 94be 01d5 a2be 0c6d a13e
00000090: f4a8 9abe a738 993e b9cf 903e b40a 9fbe
000000a0: 5b06 75be b814 9dbe f5ba aebe cf3f 9d3e
000000b0: 9101 a5be 0655 a13e 5453 a8be e2ab 94be
000000c0: 81cf 983e dd4c aa3e 73b2 933e 1b00 a1be
000000d0: 5fa9 ba3e 56e8 b13e 5940 81be 1122 af3e
000000e0: cecc a1be 70bb aebe 5acf a4be 588b aebe
-0.24565063 -0.3055982 0.2848891 0.2903173 0.31765842 -0.31618983 0.30232367 -0.3017454
-0.2805375 0.31064495 0.23936538 0.306239 0.33928952 -0.3053462 0.32217076 -0.3168193
0.3287366 0.29042253 -0.29986975 -0.3299695 -0.28604347 0.3147039 -0.36340216 -0.3473393
0.25275114 -0.3412192 0.3136255 0.34148535 0.32203683 0.3409773 0.24647097 0.30748874
-0.28482375 -0.29061535 -0.31803134 0.3152851 -0.30207026 0.29926035 0.2828348 -0.31062853
-0.23928206 -0.3067987 -0.34127012 0.30712745 -0.32227758 0.3151018 -0.32876074 -0.29037386
0.29845813 0.33261767 0.28847083 -0.31445393 0.36457345 0.3474757 -0.25244406 0.34205678
-0.31601566 -0.34127378 -0.32189447 -0.34090686

model.4.bias f4 [2]
00000000: d979 d7bc 0e49 b53c
-0.026303219 0.022129562
